api/core/ml_static/model_weights.pth (torch, 727317 bytes, 12 tensors)

conv1.0.weight f4 [8, 3, 3, 3]
0	0xbd39f137	-0.045396056
1	0xbe3db4a9	-0.18525948
2	0x3cdca7ef	0.026935546
3	0xbd832c98	-0.0640499
4	0x3d90a023	0.07061794
5	0xbca3a0c6	-0.019974124
6	0x3df1479c	0.117812365
7	0x3e3f7e6f	0.18700574
8	0xbdb651f5	-0.08902351
9	0xbe33f981	-0.17575647
10	0x3cc4104f	0.023933558
11	0x3e5eef1f	0.21770905
12	0xbdba528b	-0.09097775
13	0x3e2c770c	0.16842288
14	0x3dddca13	0.10829558
15	0xbe293289	-0.16523184
16	0xbdb73c9c	-0.08947107
17	0x3e26d3fb	0.16291802
18	0x3ddbd032	0.107330695
19	0x3e4f8973	0.20267276
20	0x3cd46c8b	0.025930664
21	0x3e207b4a	0.15672031
22	0x3e4f38e9	0.20236553
23	0x3c4b9267	0.012425042
24	0x3d8b255b	0.06794234
25	0x3e450fa9	0.19244255
26	0xbd042ce7	-0.032269385
27	0xbe53d812	-0.20687893
28	0x3d936699	0.07197303
29	0xbd885bdf	-0.06658148
30	0xbdd4c5c3	-0.103892826
31	0xbe2ae4fe	-0.16688916
32	0xbda38ec4	-0.07986215
33	0x3d8a22a1	0.06744886
34	0xbd2e31b3	-0.042527866
35	0x3cad521b	0.021157315
36	0x3da3a19e	0.079898104
37	0x3e03e836	0.1288155
38	0x3dbd6f77	0.09249776
39	0x3e15d52e	0.14632103
40	0xbdc9aec1	-0.09847785
41	0xbe197d3f	-0.14989184
42	0xbd001737	-0.03127214
43	0x3c9b1c77	0.018934472
44	0xbe2ddce3	-0.16978793
45	0xbd32c9eb	-0.043649595
46	0xbdeeb969	-0.11656458
47	0xbd8b4bd9	-0.06801576
48	0x3bc16d1f	0.005902901
49	0xbe2ca9ac	-0.168616
50	0x3d839277	0.0642442
51	0x3d2dffeb	0.04248039
52	0x3dd5ca5c	0.104389876
53	0xbe39b3a1	-0.18134929
54	0xbd076c4b	-0.03306226
55	0x3d908a1a	0.07057591
56	0xbe4d51bd	-0.20050712
57	0xbe1783b2	-0.14796332
58	0x3e35bc3b	0.17747585
59	0xbe004e9c	-0.12529987
60	0x3e343a1c	0.17600292
61	0x3e424f35	0.18975528
62	0x3d2fa30f	0.042880114
63	0xbe09244c	-0.13392752
64	0x3e63685e	0.22207782
65	0x3d581c90	0.052761614
66	0x3d2ffab1	0.042963687
67	0x3da225a4	0.07917336
68	0x3d6058d0	0.0547722
69	0xbd1ebb59	-0.038752887
70	0x3e525ded	0.20543642
71	0xbdd6db17	-0.10491007
72	0xbde95668	-0.11393434
73	0x3e2212f4	0.15827543
74	0x3bf7dca1	0.007564143
75	0x3d94ff93	0.072753094
76	0xbd32dfe8	-0.043670565
77	0xbd5d8c33	-0.054088783
78	0x3dbae19d	0.091250636
79	0xbe08c8df	-0.13357876
80	0xbddc5425	-0.10758237
81	0xbe03ec31	-0.12883069
82	0xbd7ecec6	-0.062208913
83	0xbe588ad5	-0.2114671
84	0xbd6bee52	-0.057600327
85	0xbe1029ea	-0.14078489
86	0xbc9a7add	-0.018857414
87	0x3dbefba5	0.09325341
88	0x3e243b39	0.16038217
89	0xbd94b1d8	-0.072604835
90	0xbd6e9304	-0.058245674
91	0x3da27646	0.07932715
92	0xbe15fdb4	-0.14647561
93	0xbdec51f0	-0.11539066
94	0xbd7f34b1	-0.06230611
95	0xbd097b15	-0.033564646
96	0xbdcfdf81	-0.10150052
97	0x3d09f8a9	0.033684406
98	0x3c67172c	0.014104646
99	0x3d0ce663	0.0343994
100	0x3d3fa76c	0.046790525
101	0x3e3ca3ab	0.1842181
102	0x3c99f17e	0.01879191
103	0x3d33b686	0.04387524
104	0xbd847938	-0.06468433
105	0xbd0fe2ff	-0.03512859
106	0x3e5c28ad	0.21499892
107	0x3e53bb58	0.20676935
108	0xbdfc62e9	-0.12323553
109	0xbc9ce771	-0.019153329
110	0xbdab073b	-0.083509885
111	0xbe4553ed	-0.19270296
112	0x3e088a30	0.13333964
113	0xbe054e84	-0.13018233
114	0x3cc7b6f6	0.024379235
115	0x3a69611e	0.0008902716
116	0xbda2ab82	-0.07942869
117	0xbde0f96f	-0.10985076
118	0x3d60e987	0.05491021
119	0xbc4c003f	-0.012451231
120	0x3ded9b24	0.11601856
121	0xbd118463	-0.035526644
122	0xba643521	-0.00087054266
123	0xbe37b5b9	-0.17940415
124	0xbe3bba23	-0.18332724
125	0x3df06522	0.117380396
126	0x3d0e35e1	0.03471935
127	0x3e7013b7	0.2344502
128	0xbb432ed6	-0.0029782555
129	0xbdc0daf9	-0.09416766
130	0x3d86d918	0.06584376
131	0xbcd916f0	-0.026500195
132	0x3e28fd63	0.1650291
133	0x3ca2a7af	0.019855348
134	0x3e242f25	0.16033609
135	0x3e188832	0.14895704
136	0x3dfdcadc	0.12392208
137	0x3d5ad7ff	0.053428646
138	0x3e1b9b8e	0.15196058
139	0x3d2f9ef7	0.04287621
140	0xbdc54378	-0.09632009
141	0x3e2dcd78	0.16972911
142	0x3cca0fef	0.0246658
143	0xbe01b123	-0.12665229
144	0xbd64142c	-0.0556833
145	0x3e3dff41	0.18554403
146	0x3cc4f34b	0.024041792
147	0xbd17c99c	-0.037057504
148	0x3e2e41d8	0.17017305
149	0x3e1d3bfd	0.15354915
150	0x3da5fcdd	0.081048705
151	0x3e4b0451	0.19825865
152	0x3e35cd21	0.17754032
153	0xbcab3e4f	-0.020903734
154	0xbd726046	-0.059173845
155	0xbdee3bee	-0.116325244
156	0x3e21cb67	0.15800248
157	0x3e0c6dae	0.13713714
158	0x3d47b568	0.048756987
159	0xbd1d1cdb	-0.038357597
160	0xbe025188	-0.12726414
161	0xbd333f4e	-0.043761544
162	0xbddc3a7d	-0.10753343
163	0x3dc89907	0.09794813
164	0xbce371f1	-0.027764292
165	0x3d961e47	0.07329994
166	0xbd6daf30	-0.0580284
167	0xbdfe1328	-0.124059975
168	0x3d286cbf	0.041119333
169	0x3d8f1b28	0.069876015
170	0xbc738d7a	-0.014865274
171	0x3c4c5997	0.012472532
172	0x3d7e40f0	0.062073648
173	0x3de13d5b	0.10998031
174	0x3dacdec5	0.084409274
175	0x3e496c8f	0.19670318
176	0xbc1ace2d	-0.00944857
177	0x3e281ae1	0.16416503
178	0x3e489f8d	0.19592114
179	0xbd92562a	-0.07145341
180	0xbd5423f4	-0.0517921
181	0x3d0a6119	0.033784006
182	0xbe3f91d3	-0.18707971
183	0xbe4acdd6	-0.19805083
184	0x3c9bc9c3	0.019017106
185	0xbe55e3e5	-0.20887716
186	0xbdf3bf8a	-0.119017676
187	0x3ddf8aec	0.10915169
188	0xbe0d14c9	-0.1377746
189	0x3dc2e974	0.09517184
190	0x3e16924e	0.14704248
191	0xbdddeda2	-0.108363405
192	0x3ccb834b	0.024842879
193	0xbda37416	-0.07981126
194	0x3dbe3388	0.092871726
195	0xbdafc875	-0.08583156
196	0x3da46bae	0.08028351
197	0xbd582bb2	-0.052776046
198	0x3e2519f0	0.16123176
199	0x3d7dcf46	0.06196525
200	0xbdd9b103	-0.106294654
201	0x3e5285ad	0.20558806
202	0x3e117085	0.14203079
203	0x3c70bf06	0.014693981
204	0x3e1aad15	0.15105088
205	0xbd977e5f	-0.0739715
206	0x3b6e9cbc	0.003640934
207	0x3e19cc95	0.15019448
208	0x3dee9c7f	0.11650943
209	0x3d0d139e	0.034442537
210	0x3da41cf4	0.08013335
211	0xbdc691e1	-0.09695793
212	0x3dc1cfdd	0.09463475
213	0x3e281dae	0.16417572
214	0x3e3f8163	0.18701701
215	0xbe0ee796	-0.1395553

conv1.0.bias f4 [8]
0	0xbe04867f	-0.12941931
1	0x3d168d3f	0.036755797
2	0x3e19899a	0.14993897
3	0xbd80492f	-0.06263959
4	0xbd3ed37a	-0.0465884
5	0x3e4f5743	0.20248131
6	0xbe8491f8	-0.25892615
7	0x3d093e1b	0.033506494

conv2.0.weight f4 [16, 8, 3, 3]
0	0xbc876427	-0.016527249
1	0x3d898257	0.067143135
2	0x3d5643d1	0.05231077
3	0xbd86cd1f	-0.065820925
4	0xbbe44758	-0.0069665127
5	0x3d158eff	0.036513325
6	0x3d7e6d35	0.062115867
7	0x3cb96405	0.0226307
8	0xbd3a49da	-0.045480587
9	0x3ddc748c	0.10764417
10	0x3dbae295	0.09125248
11	0x3d783c0e	0.060604148
12	0x3db09ffd	0.08624265
13	0xbcda31a7	-0.026635004
14	0xbce2b2e8	-0.0276732
15	0x3df357dc	0.11881992
16	0x3d8a1b78	0.067435205
17	0x3d27f01a	0.041000463
18	0xbe2c0b10	-0.16801095
19	0x3c8e7e22	0.01739413
20	0x3d9b231b	0.07575055
21	0xbe2e5454	-0.17024356
22	0xbe1a0e62	-0.15044549
23	0xbd00bf08	-0.03143218
24	0xbd147fa9	-0.03625456
25	0x3d75ed73	0.060040902
26	0x3d9838f0	0.07432735
27	0xbd420edc	-0.047377452
28	0xbdf24d9d	-0.1183121
29	0xbd614b5b	-0.055003505
30	0x3ceb5910	0.028728992
31	0x3d03b5f5	0.03215595
32	0x3cefbec8	0.029265776
33	0xbd3f46d2	-0.0466984
34	0xbd847f7a	-0.06469627
35	0x3d9e80ad	0.07739387
36	0x3cbf0727	0.02331884
37	0x3d81e1b8	0.063418806
38	0xbc206b62	-0.009791227
39	0x3c68e46e	0.014214618
40	0xbddc3fbf	-0.10754346
41	0xbd597e20	-0.053098798
42	0xbdab21e7	-0.08356076
43	0x3dafdd41	0.08587123
44	0x3b4a0145	0.003082351
45	0xbd8f5568	-0.06998712
46	0xbe24bdb2	-0.16087988
47	0x3e023f7f	0.12719534
48	0xbdebe616	-0.11518495
49	0xbd12dfeb	-0.035858076
50	0x3c7dd6e2	0.015493127
51	0xbe27374b	-0.16329686
52	0x3d72cf1b	0.059279542
53	0x3e03e1ca	0.128791
54	0xbd1da80d	-0.038490344
55	0xbb378d4f	-0.002800781
56	0x3cb64398	0.022249028
57	0xbd4a4c21	-0.04938901
58	0x3b00a014	0.0019626664
59	0x3cc638b4	0.02419696
60	0x3cf82f73	0.030296063
61	0x3d86cf7e	0.06582545
62	0x3d19bc8f	0.03753334
63	0xbe0a56a7	-0.13509618
64	0xbdd80f88	-0.10549837
65	0x3d9e1a4e	0.07719861
66	0xbdd3e60a	-0.10346611
67	0xbda979ca	-0.082751825
68	0x3cc1e2ad	0.023667658
69	0x3d09398f	0.033502158
70	0x3d6089ea	0.054819025
71	0x3d5f683a	0.054542758
72	0x3d865109	0.06558425
73	0x3e016346	0.12635526
74	0xbcbd7571	-0.02312729
75	0xbdbc85d9	-0.09205217
76	0x3d9f11be	0.07767056
77	0x3dcf538a	0.10123356
78	0xbcf78df4	-0.030219056
79	0x3d3550ec	0.044266626
80	0xbd288b8b	-0.041148704
81	0xbd8681ea	-0.06567748
82	0x3db66b13	0.089071415
83	0xbc12b076	-0.008953204
84	0xbdb706c1	-0.08936835
85	0xbd53be21	-0.051694993
86	0x3c0ccf11	0.00859429
87	0xbdb31b94	-0.087454945
88	0xbd9aed13	-0.075647496
89	0xbcc717ae	-0.024303284
90	0xbdeb7e68	-0.114987195
91	0xbdbb9526	-0.09159307
92	0xbd3e3547	-0.046437528
93	0xbd546d41	-0.051862005
94	0xbd08f665	-0.033438105
95	0x3de6ea79	0.11275191
96	0x3df4d79a	0.11955185
97	0xbd7922c7	-0.060824182
98	0xbcaeb1a7	-0.021324946
99	0x3e17627d	0.14783664
100	0x3de3ed7d	0.11129282
101	0x3e28a5cd	0.16469498
102	0x3d2c1858	0.042015404
103	0x3c2768af	0.01021783
104	0x3db96629	0.09052689
105	0x3da613e2	0.08109261
106	0x3d3bbdab	0.04583518
107	0x3d89d0da	0.067292884
108	0xbd5f5bf8	-0.054531068
109	0x3d4dab4e	0.050212197
110	0x3ca334e7	0.019922687
111	0x3e09ec9c	0.13469166
112	0x3e22020b	0.15821092
113	0x3e1e528b	0.15461175
114	0xbda39651	-0.07987655
115	0xbda69750	-0.08134329
116	0x3dcf9d31	0.10137404
117	0x3d135d4b	0.035977643
118	0xbdcb123f	-0.099155895
119	0xbd91a2bf	-0.071111195
120	0x3d60bbff	0.054866787
121	0x3d20847e	0.039188854
122	0xbd34298a	-0.043984927
123	0x3dc733da	0.09726687
124	0xbcdee59d	-0.027209098
125	0xbcc5fe7e	-0.024169203
126	0x3ceb3e78	0.02871631
127	0x3d9c567e	0.076336846
128	0x3de9f1a6	0.11423044
129	0x3dbd8cb2	0.09255351
130	0xbcfd05f2	-0.030886624
131	0xbd8905fa	-0.06690593
132	0x3db0f5f0	0.08640659
133	0x3c9f7f59	0.019469904
134	0x3e160dd8	0.14653718
135	0x3c5a0cf8	0.013308756
136	0xbdccc352	-0.09998192
137	0xbbe90d2a	-0.007112165
138	0x3d481005	0.048843402
139	0xbde98c0b	-0.11403664
140	0xbd5178f4	-0.05114074
141	0xbe14ee65	-0.14544065
142	0x3d4f82cc	0.050661847
143	0xbdc9c21b	-0.09851476
144	0xbd6c0b71	-0.0576281
145	0xbd8f6b0f	-0.07002842
146	0x3d3d6f6f	0.04624885
147	0xbde1db67	-0.11028176
148	0x3da8a756	0.08235042
149	0x3d6d3632	0.057913013
150	0xbd99e01a	-0.07513447
151	0xbcde020e	-0.02710059
152	0xbda5a37d	-0.080878235
153	0xbd8061eb	-0.06268676
154	0x3ba78c9e	0.0051131984
155	0xbcf3b94e	-0.029751446
156	0xbc8c9b39	-0.01716386
157	0x3d0af34a	0.033923425
158	0x3d8d67fa	0.069045976
159	0x3d2fc5b9	0.042913172
160	0xbdeb25ff	-0.114818566
161	0x3c211dc9	0.0098337615
162	0xbd805048	-0.062653124
163	0x3d290715	0.04126652
164	0xbe0e1f47	-0.13879119
165	0xbdeb3032	-0.11483802
166	0x3da0e7b3	0.07856693
167	0x3d6dd22a	0.058061756
168	0xbd93cacd	-0.072164156
169	0xbdb5bab9	-0.08873505
170	0x3c872a00	0.01649952
171	0x3c94b384	0.018152006
172	0xbe067bba	-0.13133135
173	0xbdbeab81	-0.093100555
174	0xbdbfd16f	-0.09366118
175	0x3db93188	0.090426505
176	0x3d130007	0.035888698
177	0x3d128b6e	0.0357775
178	0x3caa3909	0.02077915
179	0xbd8ce86c	-0.068802685
180	0x3d113930	0.03545493
181	0x3d14b312	0.036303587
182	0x3d436a40	0.04770875
183	0x3d8db75e	0.0691974
184	0xbdee8c68	-0.11647874
185	0x3ddea4ca	0.10871275
186	0xbda342ce	-0.07971726
187	0xbd9e95d9	-0.07743425
188	0xbdc3a559	-0.09553022
189	0xbc440620	-0.011964351
190	0x3c6dc251	0.014511661
191	0xbddcf759	-0.10789365
192	0xbe0275f8	-0.12740314
193	0x3d082d62	0.033246405
194	0x3bfbadb0	0.0076806173
195	0x3d1dfe57	0.038572636
196	0x3ce12130	0.027481645
197	0xbdf5a27c	-0.11993882
198	0xbdf484aa	-0.11939366
199	0xbd9ffe08	-0.078121245
200	0x3ca6e1a5	0.020371268
201	0xbcf567b2	-0.029956672
202	0xbc905b4e	-0.017621662
203	0xbe0876c8	-0.13326561
204	0xbe1d0f19	-0.1533779
205	0x3d202852	0.039100952
206	0x3c71b049	0.014751502
207	0xbc0cb5cd	-0.008588267
208	0xbb97e5c2	-0.0046355436
209	0x3d1f7b20	0.03893578
210	0x3bb024c8	0.0053754784
211	0x3d99b348	0.07504898
212	0x3a28ea3b	0.00064435945
213	0x3d9af693	0.075665615
214	0x3c7b9afa	0.0153567735
215	0xbcca5719	-0.024699735
216	0xbd6b0d67	-0.05738583
217	0x3b0e5536	0.002171827
218	0xbdd59774	-0.10429278
219	0xbe05170a	-0.1299707
220	0xbddb4d18	-0.10708064
221	0x3d99bd86	0.07506852
222	0xbcea1697	-0.028575225
223	0xbde11dac	-0.109919876
224	0x3d46118b	0.048356574
225	0x3dd6049e	0.104500994
226	0x3de8002f	0.1132816
227	0x3d95355c	0.07285568
228	0xbc2d5740	-0.010579884
229	0x3d1769f4	0.03696628
230	0x3c51af50	0.012798145
231	0x3dd7d1ba	0.10538049
232	0x3df73dd1	0.120723374
233	0x3d378d61	0.044812564
234	0xbb2180e3	-0.0024643473
235	0xbc269d65	-0.010169362
236	0xbda29b61	-0.079397924
237	0xbd2f8996	-0.04285582
238	0xbd8f0fec	-0.06985459
239	0xbd5faa2c	-0.054605648
240	0xbdb07f83	-0.08618071
241	0x3d41d232	0.0473196
242	0xbdaaf636	-0.08347742
243	0xbd485195	-0.048905928
244	0x3d82eaf5	0.06392471
245	0x3d11f1ac	0.035630867
246	0xbd2e37ed	-0.042533804
247	0x3c50b9e7	0.012739635
248	0xbc121868	-0.008916952
249	0x3db4f854	0.08836427
250	0xbdaba2f7	-0.083806925
251	0x3db8b2f1	0.09018505
252	0x3b48f932	0.003066611
253	0xbb93de06	-0.0045125512
254	0x3d22d87a	0.03975723
255	0x3de68ec1	0.11257697

conv2.0.bias f4 [16]
0	0xbd60e829	-0.054908905
1	0x3d01e2a4	0.031710282
2	0xbdf4e1e2	-0.11957146
3	0x3dc2f3f1	0.095191844
4	0x3c5c7d93	0.013457674
5	0xbda6fb65	-0.081534185
6	0xbe34fb3f	-0.17673968
7	0x3dd654fd	0.10465429
8	0xbd942b6e	-0.07234846
9	0x3db9eca2	0.09078337
10	0x3c64ae20	0.01395753
11	0xbdf6a802	-0.12043764
12	0xba27c49d	-0.0006399842
13	0x3cdacfa3	0.026710337
14	0xbd6ea4a4	-0.058262482
15	0xbdf258fe	-0.1183338

conv3.0.weight f4 [32, 16, 3, 3]
0	0x3d56c7b6	0.052436553
1	0x3cacb36c	0.021081649
2	0xbb8060fb	-0.003917811
3	0xbd39854c	-0.045293137
4	0xbcba5302	-0.02274466
5	0x3dae0727	0.08497458
6	0xbcb676b8	-0.022273406
7	0x3d9ba953	0.076006554
8	0x3c93a768	0.018024161
9	0x3c7fa2f0	0.015602812
10	0xbd906ebe	-0.070523724
11	0x3b383fb0	0.0028114133
12	0x3d3276aa	0.043570198
13	0xbd6039a4	-0.05474247
14	0xbb7f2743	-0.0038933314
15	0x3d48c7d1	0.049018685
16	0xbdb3ac81	-0.08773137
17	0xbd84af3b	-0.06478735
18	0x3c92e92e	0.017933454
19	0xbc2e5b45	-0.010641878
20	0x3d30a6f7	0.04312798
21	0x3bc76a49	0.006085668
22	0x3d9e44fe	0.07728003
23	0x3d87f393	0.06638255
24	0x3db847d2	0.08998074
25	0xbc78c47d	-0.015183565
26	0x3c514b8c	0.012774359
27	0x3c421dff	0.011847972
28	0xbc9bc892	-0.019016538
29	0xbc4c6690	-0.012475625
30	0x3d6d13f7	0.057880368
31	0x3d54a303	0.051913273
32	0xbdb166f3	-0.08662214
33	0x3cb0df00	0.02159071
34	0x3d1ac3c2	0.037784345
35	0x3d9537ce	0.072860345
36	0x3d099e17	0.03359803
37	0xbc197cf0	-0.009368166
38	0x3d0f85a2	0.03503955
39	0xbdad6880	-0.084671974
40	0x3d5a5611	0.053304736
41	0x3d545076	0.051834546
42	0xbcfbfeac	-0.030761085
43	0x3d13b224	0.03605856
44	0x3d83bc78	0.06432432
45	0xbdfe0513	-0.124033116
46	0xbccef048	-0.02526106
47	0xbe04a9eb	-0.12955444
48	0x3c0593f2	0.008152949
49	0xbc7bed8d	-0.015376461
50	0xbc5ecf46	-0.0135992225
51	0x3d2e2b68	0.042521864
52	0xbda39e28	-0.0798915
53	0x3ccf8f40	0.025336862
54	0x3d968f27	0.07351523
55	0x3ba17bb8	0.0049280785
56	0x3d1e8f87	0.038711097
57	0x3d5ffe6f	0.054686006
58	0x3da4ec1a	0.08052845
59	0x3ccd8938	0.025089845
60	0x3d3645d1	0.044500176
61	0x3dc70262	0.09717251
62	0x3cd6acd6	0.026205461
63	0x3d8cb281	0.068699844
64	0x3cee0b95	0.029058257
65	0x3d6187a8	0.055061013
66	0xbc2d5987	-0.010580427
67	0x3daa5408	0.08316809
68	0xbcef83db	-0.029237678
69	0xbd1252c8	-0.035723478
70	0x3da82540	0.0821023
71	0x3b900ec1	0.00439629
72	0x3d30b5c8	0.04314211
73	0x3d5eb942	0.054375894
74	0x3d8e2943	0.06941464
75	0xbd1ea3fb	-0.038730603
76	0xbd8a4abf	-0.06752538
77	0xbdccad81	-0.09994031
78	0xbdbadd56	-0.09124248
79	0xbd859f85	-0.065245666
80	0x3d4856a0	0.048910737
81	0xbd218234	-0.039430812
82	0x3d748618	0.059698194
83	0x3d8cf215	0.06882111
84	0x3da42990	0.0801574
85	0x3c3e32ff	0.011608838
86	0xbd0baa0a	-0.03409771
87	0x3dc149c3	0.09437897
88	0x3d3fbdc1	0.046811823
89	0x3b015468	0.0019734148
90	0x3d228cf0	0.03968519
91	0x3e07224d	0.13196678
92	0x3e075f3c	0.13219923
93	0x3db93deb	0.09045013
94	0x3cce5139	0.025185214
95	0xbcc2ad71	-0.023764344
96	0x3b0ccedd	0.0021485605
97	0x3ce2e512	0.02769712
98	0x3d692dea	0.056928553
99	0x3d209e1d	0.03921329
100	0x3d4385e4	0.04773511
101	0xbd10df18	-0.03536901
102	0x3d84da97	0.06487005
103	0x3dbfdc43	0.093681835
104	0x3d765c14	0.060146406
105	0x3ccb3dcc	0.02480974
106	0x3cc983ed	0.02459904
107	0x3dc4630a	0.09589203
108	0x3d489366	0.048968695
109	0xbddd4378	-0.10803884
110	0xbd65776f	-0.056022104
111	0x3d85f52c	0.065409034
112	0xbd38f519	-0.04515562
113	0xbdc469c2	-0.09590484
114	0x3dd483f8	0.103767335
115	0x3ce57454	0.028009571
116	0x3b7e8532	0.0038836715
117	0x3c40792f	0.011747642
118	0x3d5db264	0.054125205
119	0x3d59f553	0.053212475
120	0xbd387c0a	-0.045040168
121	0x3d984d31	0.07436598
122	0xbcf8bcce	-0.030363467
123	0x3c857b34	0.0162941
124	0x3c56d5da	0.01311251
125	0x3c888bbe	0.016668197
126	0xbdacf72b	-0.08445581
127	0xbd9a375e	-0.07530092
128	0x3d00b214	0.03141983
129	0xbd151419	-0.03639612
130	0xbd656c03	-0.05601121
131	0x3d8c748f	0.06858169
132	0xbd5e5db2	-0.054288574
133	0xbd4d0438	-0.05005285
134	0xbd15e63d	-0.036596525
135	0x3dc4c764	0.09608343
136	0xbd1dd742	-0.038535364
137	0xbdb8f936	-0.09031908
138	0x3c922356	0.017839115
139	0xbdde9e46	-0.10870032
140	0xbd92b974	-0.071642786
141	0xbd9f516c	-0.07779202
142	0xbd28e73e	-0.041236155
143	0x3d0644cb	0.03278045
144	0x3d836d0f	0.06417286
145	0x3cefe7ee	0.029285397
146	0xbda49ea1	-0.080380686
147	0x3dc74f94	0.09731975
148	0xbc120793	-0.008912939
149	0xbd8503f5	-0.06494895
150	0x3c60787d	0.013700602
151	0x3de01c5f	0.10942911
152	0xbc414e13	-0.0117983995
153	0xbda3240b	-0.07965859
154	0x3d68436c	0.056704924
155	0x3d9bec88	0.07613474
156	0xbc3f6e8c	-0.011684071
157	0xbd9bd3f2	-0.07608785
158	0x3bcc88ed	0.0062419088
159	0x3cd70fb1	0.0262526
160	0xbda495a6	-0.08036356
161	0xbd924a82	-0.071431175
162	0xbd9cdaa7	-0.07658892
163	0xbd3e5830	-0.04647082
164	0xbd59d8d7	-0.05318531
165	0xbd4d506b	-0.05012552
166	0xbdaf6385	-0.08563904
167	0xbda38480	-0.07984257
168	0x3d2d4b24	0.042307988
169	0xbc95e76a	-0.018298823
170	0xbb26f21f	-0.0025473905
171	0x3db0fec9	0.086423464
172	0x3b36bd21	0.0027883726
173	0x3c52fff6	0.012878409
174	0x3d71f404	0.059070602
175	0xbcda8dd9	-0.026678966
176	0xbda31703	-0.079633735
177	0x3d660afc	0.05616282
178	0xbd032fc9	-0.032027993
179	0xbd2f5855	-0.04280885
180	0x3d5b7dbd	0.05358671
181	0xbc7ad028	-0.015308417
182	0x3c2e0a16	0.010622522
183	0x3d0635bf	0.0327661
184	0x3c25e948	0.010126419
185	0xbd92c1db	-0.07165881
186	0x3da4ca71	0.08046425
187	0xb9a51754	-0.00031488633
188	0xbdce5e4d	-0.1007658
189	0xbdbaf814	-0.091293484
190	0x3d9e9766	0.07743721
191	0x3de106ad	0.109876014
192	0x3c28df84	0.0103071965
193	0x3d48fad3	0.04906733
194	0x3d813d59	0.06310529
195	0xbba0128d	-0.004885024
196	0x3da744ce	0.0816742
197	0x3d2efe6e	0.04272311
198	0xbd0cf92b	-0.034417313
199	0x3d0465b9	0.032323573
200	0xbcdd305a	-0.027000595
201	0xbdb76923	-0.089556
202	0x3d3c0998	0.045907587
203	0x3dd126e6	0.102124974
204	0xbd7ffdff	-0.06249809
205	0xbd8b8094	-0.06811634
206	0x3c903f88	0.017608419
207	0xbc5c3483	-0.013440254
208	0xbd3f8fcb	-0.04676799
209	0xbcef48fc	-0.029209606
210	0xbd702770	-0.05863136
211	0xbc385063	-0.011249634
212	0xbd9743d4	-0.07385984
213	0xbcd9c2e2	-0.026582185
214	0xbca9bb4f	-0.020719199
215	0x3c526ab2	0.012842821
216	0x3dc1cec6	0.09463267
217	0x3dd99d41	0.10625697
218	0x3c916c96	0.017751973
219	0xbd5842a6	-0.052797936
220	0x3d927381	0.07150937
221	0x3d98cd77	0.07461064
222	0x3d96e7e0	0.073684454
223	0xbd0ad8db	-0.033898216
224	0xbd29dc79	-0.041470025
225	0xbd5d361a	-0.054006673
226	0x3d8244fe	0.063608155
227	0x3d29ea3d	0.041483153
228	0xbdaa96bf	-0.08329534
229	0x3d699aa6	0.05703225
230	0xbc21fe89	-0.009887346
231	0xbd3990c9	-0.045304094
232	0x3d30f668	0.04320374
233	0xbb43cf34	-0.0029878141
234	0x3dcd6fd8	0.10031098
235	0x3cacf970	0.021115035
236	0xbd261543	-0.04054762
237	0x3ddb83ef	0.10718524
238	0x3e051bc9	0.1299888
239	0x3d02b959	0.031915043
240	0x3e157102	0.1459389
241	0x3d7431b7	0.059617724
242	0x3d492069	0.049103174
243	0x3b9b6dd2	0.004743316
244	0x3d906474	0.0705041
245	0xbce71390	-0.02820757
246	0xbd1a53ad	-0.037677456
247	0xbca93121	-0.02065331
248	0x3cac35d2	0.021021757
249	0xbd934726	-0.07191305
250	0x3d93c63d	0.07215545
251	0x3c5ab276	0.013348212
252	0xbde6bad5	-0.11266104
253	0xbd54d9a1	-0.05196536
254	0xbda6896a	-0.081316784
255	0xbdceb9fa	-0.10094066

conv3.0.bias f4 [32]
0	0xbdee3064	-0.116303235
1	0xbd890a58	-0.06691426
2	0xbd487cea	-0.048947252
3	0x3d5fa336	0.05459901
4	0xbd5db1a6	-0.054124497
5	0xbcca31e1	-0.024681987
6	0x3d12bcd2	0.035824604
7	0x3d8d98c4	0.06913903
8	0xbd5afe3f	-0.053465124
9	0x3c6e5263	0.01454601
10	0x3dd6ed41	0.10494471
11	0x3ca939d3	0.020657456
12	0x3d2ae9e9	0.04172698
13	0xbdcc3aa5	-0.09972123
14	0xbdb2ee4f	-0.0873686
15	0x3c901d1a	0.017592002
16	0xbd8c82bb	-0.06860872
17	0x3df1f55b	0.11814376
18	0x3d0066b4	0.031347945
19	0xbdbb9a9f	-0.09160351
20	0xbdf2eb08	-0.11861235
21	0xbc1532f9	-0.009106391
22	0xbdc31d10	-0.095270276
23	0xbdb30a75	-0.08742229
24	0xbdb567fb	-0.08857723
25	0xbdb03b59	-0.0860507
26	0xbc748760	-0.014924854
27	0xbdd25e4d	-0.10271893
28	0xbdabbc19	-0.08385486
29	0xbc8e63b7	-0.017381532
30	0xbda55263	-0.08072355
31	0xbceb8015	-0.028747598

conv4.0.weight f4 [64, 32, 3, 3]
0	0xbb08615b	-0.0020809982
1	0xbd3c6455	-0.04599412
2	0x3cb6d458	0.02231805
3	0x3c3747c6	0.011186546
4	0xbd1d6680	-0.03842783
5	0xbb831706	-0.0040005473
6	0xbd08c6a9	-0.033392582
7	0x3c1648a9	0.009172597
8	0x3d08cb87	0.033397224
9	0x3dba1492	0.09085955
10	0xbb39184a	-0.0028243237
11	0x3d8a630d	0.06757174
12	0x3daec899	0.08534355
13	0x3ca369e1	0.019947948
14	0x3cca621d	0.024704987
15	0x3ceaabc9	0.028646367
16	0x3d2ef421	0.04271329
17	0x3d9a00d5	0.0751969
18	0xbe022839	-0.12710656
19	0xbd8e0dda	-0.06936236
20	0x3c65aab2	0.014017748
21	0xbdcd9ee2	-0.1004007
22	0xbc1533d8	-0.009106599
23	0xbd107f86	-0.035277866
24	0x3d29fb12	0.041499205
25	0x3e14569d	0.14486165
26	0x3dc7c68b	0.09754666
27	0xbc4f53e3	-0.0126542775
28	0x3ce24d19	0.027624654
29	0xb981073a	-0.00024610182
30	0x3c4737fb	0.012159343
31	0x3c9ba9fd	0.019001955
32	0xbd8334fb	-0.064065896
33	0x3c645d30	0.013938233
34	0xbd37c38d	-0.044864226
35	0xbd314c6d	-0.043285776
36	0xbda1bb58	-0.07897061
37	0xbcaeb8f4	-0.021328427
38	0x3ba009e8	0.0048839934
39	0x3cc0df59	0.023544
40	0xbaf73193	-0.0018859379
41	0x3d3cee1f	0.046125527
42	0x3d7ae375	0.061252076
43	0x3d80af84	0.06283477
44	0x3ded5eef	0.11590373
45	0x3c640f8e	0.013919724
46	0x3d30409b	0.043030363
47	0xbc329179	-0.010898941
48	0xbdb2b976	-0.0872678
49	0xbe183ee5	-0.14867742
50	0xbdf38239	-0.118900724
51	0x3d473e24	0.048643246
52	0xbd9594f6	-0.07303803
53	0x3bfc3c24	0.007697599
54	0x3b8dd09f	0.004327848
55	0xbc4717e0	-0.012151688
56	0xbd565f2a	-0.05233685
57	0xbda01e12	-0.078182355
58	0xbdb67302	-0.08908655
59	0xbcf3acb6	-0.02974544
60	0xbd66db6a	-0.056361593
61	0xbdaba54f	-0.083811395
62	0xbd8fa901	-0.07014657
63	0x3c120d2e	0.008914275
64	0xbd465ebe	-0.048430197
65	0x3c78e4f1	0.015191303
66	0x3cf7af61	0.030234994
67	0x3d176689	0.03696302
68	0x3c965a65	0.01835365
69	0x3d87661d	0.066112734
70	0x3cbda242	0.02314866
71	0x3d12b40c	0.035816237
72	0xbcde3a51	-0.027127417
73	0xbcd17eb6	-0.025573116
74	0x3caf9f32	0.021438215
75	0x3ce857c0	0.028362155
76	0x3c5404b8	0.012940578
77	0x3d86374b	0.06553515
78	0xbd5ce18c	-0.053926036
79	0xbc79b7b7	-0.015241555
80	0x3d90239b	0.07038041
81	0xbce4fd6a	-0.027952868
82	0xbc13e68b	-0.009027134
83	0x3b2b4682	0.0026134555
84	0x3c4209c8	0.011843152
85	0xbd18ac40	-0.037273645
86	0x3d450d95	0.048108656
87	0xbcc4fbb0	-0.024045795
88	0x3cfcb501	0.030848028
89	0xbcf6b692	-0.030116353
90	0x3d107efd	0.035277355
91	0xbcde4afc	-0.027135365
92	0xbd40b226	-0.047044896
93	0xbe0535da	-0.13008824
94	0xbe180261	-0.14844657
95	0xbd837c9a	-0.0642025
96	0xbb8fd981	-0.004389942
97	0x3cd24dde	0.025671896
98	0xbd59acc0	-0.053143263
99	0xbb4f148c	-0.003159794
100	0xbd161032	-0.03663654
101	0xbc05c9a4	-0.008165751
102	0x3d3a5953	0.045495342
103	0x3d0a4d10	0.0337649
104	0xbb86d0d4	-0.0041142497
105	0x3d300922	0.04297746
106	0x3da2c503	0.07947733
107	0xbb1f6c46	-0.002432601
108	0x3d01044e	0.031498246
109	0xbb1153ee	-0.002217527
110	0x3d4ade2e	0.049528293
111	0x3d9ad4e4	0.07560137
112	0x3d10b18b	0.03532557
113	0xbb409a1f	-0.0029388738
114	0x3d53e82c	0.05173509
115	0x3d8da9f3	0.06917181
116	0x3d6a449c	0.057194337
117	0xbd3c8010	-0.046020567
118	0xbd37383c	-0.044731364
119	0x3c428aa3	0.011873874
120	0xbd0f9def	-0.035062727
121	0xbce64054	-0.028106846
122	0xbd758598	-0.059941858
123	0xbb6f34c2	-0.0036499952
124	0x3d3718a9	0.044701252
125	0x3d34bc80	0.04412508
126	0xbc2cbd01	-0.010543109
127	0x3d463cea	0.048397936
128	0xbb35f36a	-0.0027763494
129	0x3d48e5d2	0.0490473
130	0x3954c902	0.00020292777
131	0xbd0fc035	-0.035095412
132	0xbc70c9c7	-0.014696545
133	0xbc3e7736	-0.011625102
134	0xbd54ffd7	-0.0520018
135	0x39cb0e27	0.00038729722
136	0x3b16c1b5	0.0023003642
137	0x3d4b29bc	0.049600348
138	0x3d36c084	0.04461719
139	0xbbdb8882	-0.0066996226
140	0xbc14c156	-0.009079298
141	0xbc8c8f9a	-0.017158318
142	0xbd0042b0	-0.0313136
143	0x3cffe41c	0.0312367
144	0xbd7ac8c7	-0.061226632
145	0xbba329e2	-0.004979358
146	0xbb5b57bf	-0.0033469049
147	0xbdc0f2ba	-0.094212964
148	0xbddcb012	-0.1077577
149	0xbd792ee3	-0.06083573
150	0x3c56f197	0.013119123
151	0xbcd92eab	-0.02651151
152	0x3c819639	0.015818702
153	0x3d222ca7	0.039593365
154	0xbc5cd999	-0.013479614
155	0x3d0625c5	0.032750864
156	0x3b21d2a4	0.0024692202
157	0xbc9be50f	-0.019030122
158	0xbd9a6ed2	-0.075406685
159	0xbd813043	-0.06308033
160	0xbda96d94	-0.082728535
161	0xbd2dc012	-0.0424195
162	0x3d1db779	0.03850505
163	0x3dbfaa5d	0.09358666
164	0x3cc5d729	0.024150448
165	0xbcfd920c	-0.03095343
166	0xbd2377a6	-0.039909028
167	0xbd908e98	-0.070584476
168	0xbda98f80	-0.082793236
169	0xbc8e3ae2	-0.017362062
170	0xbd19a832	-0.03751392
171	0xbd1f395e	-0.03887307
172	0xbcb0908b	-0.021553298
173	0x3c5d259d	0.013497737
174	0x3bdae7ed	0.0066804797
175	0x3d4b18c9	0.049584184
176	0x3bc81c7f	0.0061069126
177	0xbd062f73	-0.032760095
178	0xbacf935b	-0.0015836762
179	0xbd713c11	-0.058895174
180	0xbb3a0572	-0.0028384593
181	0x3bcee89f	0.0063143517
182	0xbd1f3d2f	-0.03887671
183	0x3d05ec5d	0.032696117
184	0x3b77c685	0.0037807536
185	0x3dac4e0d	0.084133245
186	0xbc420939	-0.011843019
187	0x3cefa39d	0.029252822
188	0x3dcf8a7f	0.10133838
189	0x3d025c42	0.031826265
190	0xbce55cc2	-0.027998332
191	0x3c5e50c6	0.013569063
192	0xbc94e44d	-0.018175269
193	0x3d2d5a2e	0.04232233
194	0x3ce47dd4	0.02789203
195	0xbbf8db2c	-0.0075944867
196	0x3d21ae99	0.03947315
197	0xbd2385f6	-0.039922677
198	0x3cd2de24	0.02574069
199	0xbbac6a52	-0.005261698
200	0x3d3b76c5	0.045767564
201	0xbc44281d	-0.011972454
202	0xbcca9ae7	-0.024732066
203	0x3c529bca	0.012854526
204	0x3c422ddd	0.011851755
205	0x3d855718	0.065107524
206	0x3aa59af6	0.0012634683
207	0x3da8ed04	0.08248332
208	0xba9a285d	-0.0011761297
209	0x3d0d19cd	0.034448434
210	0xbd51e776	-0.05124613
211	0xbd0041f6	-0.031312905
212	0x3bf576ab	0.007490953
213	0xbd585831	-0.05281848
214	0xbc925805	-0.017864237
215	0x3b700814	0.0036625909
216	0xbc3963cd	-0.011315298
217	0xbd4100b6	-0.04711982
218	0x3c462501	0.012093783
219	0xbdda0688	-0.10645777
220	0xbdb9ddf8	-0.0907554
221	0xbd65861a	-0.056036092
222	0x3b9a42fd	0.0047076927
223	0x3c4d70f5	0.012539138
224	0x3bf3289c	0.0074206125
225	0x3cf97166	0.03044958
226	0x3e06738f	0.1313002
227	0x3d5c6853	0.05381043
228	0xbb95c23a	-0.0045702728
229	0xbd2ad707	-0.041708972
230	0x3cdda4fc	0.02705621
231	0xbaa6544a	-0.0012689915
232	0xbddb5432	-0.10709418
233	0x3b74adb6	0.0037334985
234	0xbc504257	-0.012711129
235	0xbd17bd2e	-0.03704565
236	0xbc627b66	-0.013823366
237	0xbcb86742	-0.022510175
238	0x3b076002	0.002065659
239	0x3d9ed735	0.07755891
240	0xbb22de63	-0.002485179
241	0x3d87e9c5	0.06636385
242	0x3dd087d4	0.10182157
243	0x3bf85528	0.007578511
244	0xbd20a399	-0.03921852
245	0x3d3ec90f	0.046578463
246	0xbd188bac	-0.037242576
247	0xbd6e1111	-0.058121745
248	0x3c7cd11f	0.015430718
249	0x3d2fa91a	0.042885877
250	0x3c0011c8	0.007816739
251	0x3d87f6f1	0.06638897
252	0x3d1fa5a0	0.03897631
253	0x3d11ee37	0.03562757
254	0xbc480652	-0.012208538
255	0xbcefafbd	-0.029258603

conv4.0.bias f4 [64]
0	0x3c37a856	0.011209568
1	0xbd4ecbc9	-0.050487313
2	0x3d53ce7f	0.051710602
3	0xbd06cea3	-0.032911908
4	0xbd16addb	-0.036786895
5	0xbd434f3c	-0.047682986
6	0xbbac1c15	-0.005252371
7	0x3d581579	0.052754853
8	0xbd9d60f1	-0.07684506
9	0x3c5cf85e	0.01348695
10	0x3cf2449a	0.029573727
11	0xbd5b74c2	-0.053578146
12	0xbd93d17b	-0.072176896
13	0xbd768bb7	-0.060191836
14	0xbd0d439d	-0.03448831
15	0x3dc1dfc0	0.09466505
16	0xbd97c46c	-0.074105114
17	0x3c96525c	0.018349819
18	0xbc8877b2	-0.016658638
19	0x3a574318	0.0008211597
20	0x3d195bf9	0.037441228
21	0xbd0f763a	-0.03502486
22	0x3d6fe9b1	0.058572475
23	0x3cf01215	0.029305497
24	0xbd17480e	-0.03693395
25	0xbccc9623	-0.024973935
26	0x3dca2872	0.098709956
27	0xbd519d8b	-0.051175635
28	0xbd2ba018	-0.041900724
29	0xbd616b58	-0.05503401
30	0x3d8ab49e	0.06772731
31	0xbbd15116	-0.00638784
32	0xbd3d47d0	-0.046211064
33	0xbda8e40d	-0.08246622
34	0xbd8455d4	-0.06461683
35	0x3cbbb0be	0.022911426
36	0xbc7aa8ff	-0.015299081
37	0x3d3acc15	0.045604784
38	0x3d03baf2	0.032160707
39	0xbc637cac	-0.013884705
40	0xbd921355	-0.071325935
41	0xbd003967	-0.031304743
42	0x3bbc9acd	0.0057557584
43	0xbc1bec29	-0.009516754
44	0x3d5b6d45	0.053571004
45	0xbd8e48fc	-0.069475144
46	0xbd84c450	-0.06482756
47	0x3d8fa2a8	0.07013446
48	0xbd812335	-0.06305543
49	0xbccf1107	-0.025276674
50	0xbc700f6a	-0.0146521125
51	0xbccb0684	-0.02478338
52	0xbd1acbe7	-0.037792113
53	0x3deed5dc	0.11661884
54	0x3d03bbe5	0.032161612
55	0x3df3884a	0.118912295
56	0x3ddc8aa2	0.107686296
57	0xbc8b4315	-0.01699976
58	0x3cc8a65f	0.024493394
59	0xbda6c317	-0.08142679
60	0x3d844cf5	0.06459991
61	0x3cb65d49	0.022261279
62	0x3d455f61	0.048186664
63	0x3d045ec2	0.03231693

conv5.0.weight f4 [96, 64, 3, 3]
0	0xbd365409	-0.044513736
1	0xbca941e2	-0.020661298
2	0x3d272d20	0.04081452
3	0x3b9c4e93	0.004770109
4	0x3ccd0c9a	0.025030423
5	0xbcb0a196	-0.021561425
6	0xbd0c0c4d	-0.03419142
7	0xbd0a9d88	-0.03384164
8	0x3b1fbb94	0.002437328
9	0xbc60d72d	-0.013723177
10	0xbc8a112d	-0.016853893
11	0xbbba3009	-0.005681996
12	0xbd8c325e	-0.06845544
13	0xbcbb4842	-0.022861604
14	0xbd3faec8	-0.046797544
15	0xbd42063b	-0.047369223
16	0x3cdf9353	0.02729193
17	0xbc321fc1	-0.0108718285
18	0x3dcc7235	0.09982721
19	0x3dd86fa5	0.105681695
20	0x3d2e1efe	0.042510025
21	0x3db05ecb	0.0861183
22	0x3d3bc84e	0.045845322
23	0x3c46f7ad	0.012144011
24	0xbb674da7	-0.0035294087
25	0xbc7a3ee8	-0.015273787
26	0x3c32a2b5	0.01090305
27	0xbd05c8d0	-0.032662213
28	0xbd0d28dd	-0.0344628
29	0xbd4395eb	-0.047750395
30	0xbd3000af	-0.042969402
31	0xbd3e19d7	-0.04641136
32	0xbd64a464	-0.055820838
33	0xbc8bf4ff	-0.017084597
34	0x3c07cbd0	0.008288339
35	0xbd7595ac	-0.05995719
36	0xbce1e6d9	-0.027575897
37	0x39bd3964	0.00036091649
38	0xbd0c448b	-0.034245055
39	0x3c7b76e0	0.015348166
40	0x3b963a3c	0.004584579
41	0x3c98dab9	0.018658983
42	0x3d43abe2	0.047771342
43	0x3d22a3ad	0.039706875
44	0x3d2c66ab	0.0420901
45	0xbc4b524a	-0.012409756
46	0xbd78c49f	-0.060734387
47	0xbd1c8582	-0.03821326
48	0xbd4db2a1	-0.050219182
49	0xbda52637	-0.080639295
50	0xbd65c709	-0.056098018
51	0x3d0e42a5	0.034731526
52	0xbc83d60c	-0.016093276
53	0xbd271828	-0.04079452
54	0x3d75ff13	0.06005771
55	0x3db411c3	0.0879245
56	0x3d4a32de	0.049364917
57	0x3d86b429	0.065773316
58	0x3d198925	0.037484307
59	0x3cb83662	0.02248687
60	0x3c74d1b0	0.0149425715
61	0x3b253c69	0.002521301
62	0xbb6c42b6	-0.0036050505
63	0x3d81c521	0.063364275
64	0x3be1a0a1	0.0068856035
65	0x3d046652	0.032324143
66	0x3d225c1f	0.039638635
67	0xbb68f321	-0.0035545307
68	0x3cad0770	0.02112171
69	0x3c841ec0	0.016127944
70	0xbc93577e	-0.017986055
71	0xbced8cc3	-0.028997784
72	0x3e053a7d	0.13010593
73	0x3dbdbfac	0.09265074
74	0x3cfa4247	0.030549182
75	0x3c3d713e	0.011562644
76	0x3d570ddc	0.05250345
77	0x3cde1e26	0.027113985
78	0xbc13cdc7	-0.009021229
79	0xbd237257	-0.039903965
80	0xbd5baa10	-0.05362898
81	0xbb8a9f2b	-0.0042304
82	0xbb090db8	-0.0020912718
83	0x3cadf14d	0.021233225
84	0xbaa6d882	-0.0012729319
85	0x3d04b5ac	0.03239982
86	0x3cf2f61b	0.029658368
87	0xbb3b59ce	-0.0028587463
88	0xbd00fcc2	-0.03149105
89	0x3cbf4d31	0.023352237
90	0xbd5fb4d8	-0.054615825
91	0x3c9214c7	0.017832173
92	0x3cc81f85	0.024429092
93	0xbd7ce723	-0.061743867
94	0xbd0eff00	-0.034911156
95	0xbc2f3816	-0.010694524
96	0xbcae1c4f	-0.021253733
97	0xbc9cac3e	-0.0191251
98	0x3c7f4e12	0.015582578
99	0x3b9bdc56	0.0047564907
100	0xbbc8304c	-0.006109273
101	0xbd64dea4	-0.05587639
102	0x3c43a027	0.011940039
103	0x3b613b87	0.0034367756
104	0xbd31bc21	-0.043392304
105	0x3bb8efcb	0.00564382
106	0x3ddd1bc5	0.10796312
107	0xbc964924	-0.018345423
108	0xbd38c6ea	-0.045111574
109	0xbd66f673	-0.056387376
110	0xbdb7ea75	-0.08980266
111	0xbda7d4da	-0.08194895
112	0xbd4c8b36	-0.04993745
113	0xbc16e302	-0.009209396
114	0x3ca0c21a	0.019623805
115	0x3b546e2d	0.0032414303
116	0x3c7a397e	0.015272496
117	0x3d20667a	0.03916023
118	0x3cb38ed0	0.021918684
119	0xbb00fe35	-0.001968277
120	0x3d1db23d	0.03850006
121	0x3cc57b59	0.024106668
122	0x3cfb8de6	0.03070731
123	0x3c9f9b75	0.019483307
124	0xbc2a5d61	-0.01039824
125	0xbcc17d16	-0.023619216
126	0xbd332086	-0.04373219
127	0x3c4b9f1a	0.0124280695
128	0x3ce1c4c7	0.027559651
129	0xbc94e59a	-0.018175889
130	0xbbbf4b00	-0.005837798
131	0x3d77a108	0.060456306
132	0xbd80ba6d	-0.06285558
133	0xbcf6be51	-0.030120047
134	0x3d409b28	0.04702297
135	0xbd13c8d3	-0.036080193
136	0x3ce96c59	0.028494047
137	0xbd14541a	-0.036213018
138	0xbd053331	-0.032519523
139	0xbcc0465f	-0.023471056
140	0xbd3b965e	-0.0457977
141	0xbb3ef3bc	-0.0029136976
142	0x3d0b8fd9	0.03407273
143	0xbd11ca54	-0.035593346
144	0x3c8a3a9b	0.016873648
145	0x3bff0a48	0.007783208
146	0xbde75d0f	-0.112970464
147	0xbded068e	-0.11573516
148	0xbcc00638	-0.023440465
149	0xbdb4c801	-0.0882721
150	0xbadf8dcb	-0.0017055807
151	0x3cc5934a	0.024118084
152	0x3c908abe	0.017644282
153	0xbd87b813	-0.06626906
154	0xbd99f014	-0.075164944
155	0xbe04c4f9	-0.12965764
156	0xbde3c2fe	-0.11121176
157	0xbe1cd2f7	-0.15314852
158	0xbe223e39	-0.15844049
159	0xbdd295c1	-0.102824695
160	0xbd1f1047	-0.038833883
161	0xbd782ba0	-0.06058848
162	0xbda0cb10	-0.07851231
163	0xbcc97860	-0.024593532
164	0xbd77a239	-0.060457442
165	0xbcf55fc7	-0.029952897
166	0xbd57c1a5	-0.05267491
167	0x3ba2603d	0.00495532
168	0xbbde47d9	-0.0067834673
169	0x3cfddf2d	0.030990208
170	0x3d98a33c	0.074530095
171	0xbd547a0e	-0.051874213
172	0xbd724023	-0.059143197
173	0xbd4c4f22	-0.049880154
174	0xbd3a6d92	-0.04551465
175	0xbcb6d502	-0.022318367
176	0x3d84b3f3	0.06479635
177	0xbb33fd05	-0.0027464044
178	0xbd2e46ab	-0.042547863
179	0x3d8d0a32	0.0688671
180	0xbc6415a5	-0.013921176
181	0xbda55358	-0.08072537
182	0xbdb2ea27	-0.08736067
183	0xbdfb9f28	-0.12286216
184	0xbd233b0e	-0.03985124
185	0xbdb6c309	-0.08923919
186	0xbd47a84c	-0.048744485
187	0x3cf89716	0.03034548
188	0x3c70468d	0.014665258
189	0xbcf399bd	-0.029736394
190	0xbd05c779	-0.032660935
191	0xbd0379a9	-0.032098446
192	0xbdd58799	-0.10426254
193	0xbdcbb076	-0.09945767
194	0xbd52dbaf	-0.051479038
195	0xbda12f55	-0.07870356
196	0xbcd2f4ed	-0.025751555
197	0xbcb5b116	-0.022179168
198	0xbd25a084	-0.040436283
199	0xbd79e14e	-0.061005883
200	0xbdc13d27	-0.09435492
201	0xbc9d2686	-0.019183408
202	0xbd1a25ef	-0.037633833
203	0xbdd6f2cc	-0.104955286
204	0xbd0f5f76	-0.035003148
205	0xbd8c69a9	-0.068560906
206	0xbd30be24	-0.043150082
207	0xbd93d8f0	-0.07219112
208	0xbd8f98b1	-0.070115454
209	0xbd9912e7	-0.074743085
210	0xbe012703	-0.12612538
211	0xbd0594ee	-0.032612734
212	0xbd5d8463	-0.054081332
213	0xbd9eb86d	-0.0775002
214	0xbcb17619	-0.021662759
215	0xbd94d45f	-0.07267069
216	0x3c821b9e	0.01588231
217	0xbd59b342	-0.05314947
218	0x3d10886a	0.035286345
219	0xbd2542c8	-0.04034689
220	0xbcaa4ada	-0.020787645
221	0xbbbd9299	-0.005785298
222	0xbd90943e	-0.07059525
223	0xbd2770b7	-0.040878978
224	0xbce2aed4	-0.027671255
225	0xbbdcbd28	-0.0067364164
226	0x3c3df540	0.011594117
227	0xbd7fe01a	-0.06246958
228	0x3d88c667	0.06678467
229	0x3ce8a9c4	0.028401263
230	0xbd3d7f47	-0.04626396
231	0x3d9df2d3	0.07712331
232	0x3d4159e5	0.04720487
233	0xbd1ead81	-0.038739685
234	0x39f13e38	0.0004601346
235	0xbc824cd7	-0.01590578
236	0xbbc844f6	-0.0061117364
237	0xbd2790a5	-0.04090943
238	0xbd5950e0	-0.053055644
239	0x3c214cbf	0.009844958
240	0xbcbfbf88	-0.023406759
241	0x3c2f008e	0.010681285
242	0xbc293cd2	-0.010329442
243	0xbdacd2c3	-0.08438637
244	0xbd0b33d1	-0.033984963
245	0xbd1a6067	-0.037689593
246	0xbcd6d6d3	-0.026225483
247	0xbd578613	-0.052618098
248	0xbc94cff1	-0.01816556
249	0x3b5f5c2c	0.0034082038
250	0xbb5ad8f4	-0.0033393474
251	0xbd155c34	-0.036464885
252	0xbcb58bac	-0.022161327
253	0xbc18d5b1	-0.009328292
254	0xbc52322b	-0.012829344
255	0xbc89f80b	-0.016841909

conv5.0.bias f4 [96]
0	0xbbe60d09	-0.007020597
1	0xbd847687	-0.0646792
2	0x3ad66b07	0.0016358801
3	0x3d755374	0.05989404
4	0xbd0481d4	-0.032350376
5	0xbd60a8fd	-0.05484866
6	0x3caad939	0.020855533
7	0xbcdc3028	-0.026878431
8	0xba99ea02	-0.0011742713
9	0xbae3a82c	-0.0017368845
10	0x3d570b29	0.052500878
11	0xbc50b2a9	-0.012737908
12	0xbcba2568	-0.022722915
13	0xbd933b28	-0.071890175
14	0x3c31df5a	0.010856474
15	0xbc6ec7f1	-0.014574037
16	0xbcce5f33	-0.025191879
17	0x3cc95072	0.024574492
18	0xbb295a25	-0.0025841084
19	0x3db1a333	0.08673706
20	0xbcfdd73f	-0.030986426
21	0x3ba9f5e7	0.0051867845
22	0x3cb49974	0.022045828
23	0xbc8e829e	-0.017396268
24	0xbd747c4a	-0.059688844
25	0xbc103f4d	-0.008804155
26	0xbc305948	-0.010763474
27	0xbd188e06	-0.03724482
28	0x3d9e1b80	0.07720089
29	0x3dce149c	0.10062525
30	0xbd34e355	-0.044162113
31	0x3d2a3701	0.041556362
32	0x3c98f3eb	0.018670997
33	0xbd51eae8	-0.051249415
34	0x3d054fca	0.032546796
35	0xbd14f218	-0.03636369
36	0x3c9bf25e	0.019036468
37	0xbd446555	-0.0479482
38	0xbd182ba4	-0.037150994
39	0x3d180be9	0.037120733
40	0xbd5f4058	-0.054504722
41	0x3cdc9d50	0.026930481
42	0xbd1ac9a1	-0.037789945
43	0xbd0e7087	-0.034775283
44	0xbd24345a	-0.04008899
45	0xbc09ae78	-0.008403413
46	0x3c73c620	0.01487878
47	0x3d82db05	0.06389431
48	0x3d2b6517	0.041844454
49	0xbc338070	-0.010955915
50	0xbd90491d	-0.07045195
51	0xbd339bf1	-0.04384989
52	0xbcce384c	-0.025173329
53	0x3d022f2d	0.03178327
54	0xbd0c7832	-0.034294315
55	0xbd56f5d4	-0.052480534
56	0xbc0901d3	-0.008362251
57	0xbd4babfb	-0.04972456
58	0x3c4710bc	0.012149986
59	0x3d23f467	0.040028002
60	0x3da3017d	0.07959268
61	0x3c899926	0.01679666
62	0xbce197a8	-0.027538136
63	0x3b979402	0.004625798
64	0x3d1d8768	0.03845921
65	0xbc114dae	-0.008868618
66	0xbd021a9c	-0.031763658
67	0xbd820f1c	-0.06350538
68	0x3cee4e36	0.029090028
69	0x3d71e07f	0.059051987
70	0xbd196b0a	-0.037455596
71	0xbd6f2483	-0.05838443
72	0xbd3ac06b	-0.04559366
73	0x3bcc7f68	0.006240774
74	0xbd4b764d	-0.049673367
75	0x3c404db6	0.011737278
76	0xbc659238	-0.014011912
77	0xbde5be34	-0.11217919
78	0xbc658a9f	-0.014010101
79	0xbcf76bc3	-0.030202752
80	0xbcff9dd7	-0.031203194
81	0xbd7d8b2b	-0.0619003
82	0xbc3a95d5	-0.011388262
83	0xbcb29e73	-0.02180407
84	0xbb9ef97d	-0.0048515187
85	0xbd075dd1	-0.033048455
86	0x3d769880	0.06020403
87	0xbb85b19e	-0.0040800115
88	0xbd86cd47	-0.06582122
89	0x3c8c9cf8	0.017164692
90	0xbc58c2b9	-0.013230019
91	0x3d915b76	0.07097523
92	0x3b1cd207	0.0023928897
93	0xbbb09c69	-0.0053897393
94	0xbc1fcd85	-0.0097535895
95	0x3c58d048	0.013233252

out.weight f4 [42, 2400]
0	0xbd892b69	-0.06697733
1	0x3c25e858	0.010126196
2	0x3b1dfde3	0.0024107627
3	0xbc2bc7b2	-0.010484623
4	0xbc13085c	-0.008974161
5	0xbcfe1f20	-0.031020701
6	0xbcc28fbf	-0.023750184
7	0xbc266b67	-0.010157443
8	0xbd035be5	-0.03207006
9	0x3ba9b6a2	0.005179242
10	0xbd694d5f	-0.056958552
11	0xbd2f341d	-0.04277431
12	0xbd80261d	-0.062572695
13	0xbc718cb4	-0.014743019
14	0x3d2ea591	0.042638365
15	0xbcb60403	-0.02221871
16	0xbcd40172	-0.025879595
17	0x3b16a8b2	0.0022988734
18	0xbc670ed3	-0.014102655
19	0x3c3c7e96	0.01150479
20	0x3d313a55	0.04326852
21	0xbcb0d738	-0.021587
22	0xbcc8dd3d	-0.024519557
23	0xbc974a3a	-0.018468011
24	0xbd53eff2	-0.0517425
25	0xbbe4e88d	-0.00698573
26	0x3c8821d3	0.016617691
27	0xbc50bed9	-0.012740814
28	0x3bd31a98	0.006442379
29	0x3c764552	0.015031176
30	0x3bd8353a	0.006598142
31	0xbc1319b1	-0.008978293
32	0xbbab24f0	-0.005222909
33	0x3c6dff4e	0.014526201
34	0xbcbe85fb	-0.023257246
35	0x3c93a14c	0.018021248
36	0x3c825f98	0.015914723
37	0xbbc7f361	-0.006102011
38	0x3b1095f9	0.0022062047
39	0x3c9b28ca	0.018940348
40	0x3c8c792f	0.017147629
41	0xbcc66cd1	-0.02422181
42	0xbc6b83de	-0.014374701
43	0xbb955e68	-0.0045583732
44	0xbc1a390e	-0.009413017
45	0x3c14254e	0.009042097
46	0x39cc2827	0.00038939828
47	0xbc762d11	-0.015025393
48	0x3c65d7fe	0.014028547
49	0xbaa36643	-0.001246639
50	0xbc67a9d0	-0.014139608
51	0x3d02db3e	0.031947367
52	0xbc20f03f	-0.009822904
53	0xbb85b390	-0.0040802434
54	0xbc1807de	-0.009279219
55	0xbca7c449	-0.020479338
56	0x3b01c96e	0.00198039
57	0xbc842612	-0.016131435
58	0xbbee6048	-0.007274661
59	0xb8bdbd92	-9.0475325e-05
60	0x3b5b323e	0.0033446695
61	0x3c071aac	0.008246105
62	0x3cc4f918	0.024044558
63	0x3a9468e7	0.0011322767
64	0x3c4e797b	0.012602205
65	0x3c6f441e	0.014603643
66	0x3cefa0f8	0.02925156
67	0x3b8c863d	0.0042884634
68	0x3cf55c02	0.0299511
69	0x3caa2f9c	0.020774655
70	0xbbd44ed4	-0.0064791236
71	0x3cce27bd	0.025165433
72	0x3c0bd2bf	0.0085341325
73	0xbc4b9493	-0.01242556
74	0x3b9f10bd	0.0048542903
75	0xbc05e04d	-0.008171153
76	0x3ccd380d	0.025051141
77	0xbc012db9	-0.007884436
78	0xbd213f47	-0.039366987
79	0xbd39d8a5	-0.045372624
80	0xbc1a4986	-0.009416943
81	0xbb01fc72	-0.0019834307
82	0xbb7e1d5b	-0.0038774821
83	0xbbd64c73	-0.006539875
84	0x3cf11805	0.029430399
85	0x3c48c6ac	0.012254398
86	0xbc82e36b	-0.015977582
87	0xbd7806f3	-0.060553502
88	0x3c97df80	0.01853919
89	0x3d18ccdf	0.037304755
90	0x3d01ec3e	0.03171944
91	0xbd107cb9	-0.035275195
92	0xbd190227	-0.03735557
93	0xbc7b6cd4	-0.015345771
94	0x3beff8b7	0.0073233503
95	0xbcc64600	-0.0242033
96	0xbd250e1a	-0.04029665
97	0xbdc766c8	-0.09736401
98	0xbd7a92fc	-0.06117533
99	0xbc81c6e4	-0.015841909
100	0x3c833de4	0.016020723
101	0xbb571548	-0.003281908
102	0xbc13cb24	-0.0090206005
103	0xbbc97d0a	-0.006148939
104	0xbc7aacbc	-0.015299972
105	0xbbe97fc5	-0.007125827
106	0x3c6b152a	0.014348308
107	0x3cf48cb0	0.029852241
108	0x3c94095e	0.018070873
109	0x3cade6f1	0.021228286
110	0x3c3294f2	0.010899769
111	0x3ba97c50	0.00517229
112	0x3c13a55c	0.009011593
113	0xbc32b955	-0.010908444
114	0x3d1b32ef	0.03789037
115	0x3cec8584	0.028872259
116	0xbc5f49c1	-0.013628424
117	0xbb8c2253	-0.0042765527
118	0x3be35542	0.0069376538
119	0xbbb01e9a	-0.0053747417
120	0x3cf7d506	0.030252945
121	0xbc0a1269	-0.008427241
122	0xbcbf9623	-0.02338702
123	0xba1eb378	-0.00060539646
124	0xbb81244a	-0.0039410936
125	0xbb80a7a8	-0.003926236
126	0x3c8faf30	0.01753959
127	0x3c4df7cf	0.012571289
128	0x3c749dc5	0.014930193
129	0xba371fa5	-0.00069856114
130	0x3ba057fe	0.004893302
131	0xbc5b84a8	-0.013398327
132	0x3ba33d42	0.0049816677
133	0xbb228476	-0.002479819
134	0x3b291919	0.0025802313
135	0x3c503a87	0.0127092665
136	0xbcb60c47	-0.022222651
137	0x3c613902	0.013746502
138	0xbc988b40	-0.018621087
139	0xba8cce17	-0.0010742572
140	0xbbff5c65	-0.0077929967
141	0x3af69c2c	0.0018814853
142	0x3c614c8e	0.013751162
143	0x3c81e551	0.015856417
144	0x3ca39b04	0.019971378
145	0x3c955903	0.01823092
146	0xbca69b13	-0.020337617
147	0x3c3d5420	0.0115557015
148	0xbc7bb86a	-0.015363792
149	0xbc727292	-0.0147978235
150	0x3d14a990	0.03629452
151	0x3c71abf3	0.014750469
152	0x3cc73e4d	0.0243217
153	0xbc03fe3d	-0.008056221
154	0x3a99ddae	0.0011739039
155	0xbc92205b	-0.017837694
156	0xbd8a032e	-0.06738888
157	0xbd8072fa	-0.0627193
158	0xbdae7b2e	-0.085195884
159	0xbbac780d	-0.0052633346
160	0xbd507262	-0.050890334
161	0xbcf96e85	-0.030448208
162	0xbda19eb0	-0.07891595
163	0xbdad8d54	-0.08474222
164	0xbd0e109e	-0.034683816
165	0x3c587084	0.01321042
166	0xbcef1e4b	-0.02918925
167	0xbd2482a5	-0.040163655
168	0xbcd3af8f	-0.025840549
169	0x386a0c63	5.5801484e-05
170	0xbda47739	-0.080305524
171	0xbccfca66	-0.025365066
172	0x3cfa0522	0.030520026
173	0xbd0635de	-0.032766216
174	0xbcb8a5c7	-0.022539986
175	0xba2f0375	-0.00066762354
176	0xbb8a6028	-0.0042228885
177	0xbbc81130	-0.0061055645
178	0xbb2558f1	-0.0025230015
179	0xbbc366cf	-0.0059631835
180	0x3c23ea2b	0.01000456
181	0x3c61d188	0.013782866
182	0x3ca60319	0.020265149
183	0x3c00ea36	0.00786834
184	0xbc242717	-0.010019085
185	0xbca61a77	-0.020276291
186	0xbc6edc93	-0.014578956
187	0xbc8f36e0	-0.017482221
188	0xbbe89391	-0.0070976694
189	0xbca4eb05	-0.020131597
190	0xbb9ae47c	-0.0047269445
191	0xbb932ece	-0.0044916635
192	0xbc85e63f	-0.016345141
193	0xbc7938bd	-0.015211281
194	0xbc4a2bb3	-0.01233952
195	0xbbdf6d4d	-0.0068184496
196	0xbc3c632e	-0.011498256
197	0xbc1108a5	-0.008852159
198	0xbc7d3b86	-0.015456086
199	0xbc307f28	-0.010772504
200	0xbce97e04	-0.028502472
201	0xbd4c390f	-0.049859103
202	0xbd3783e1	-0.044803504
203	0xbc394ece	-0.011310292
204	0xbcc07107	-0.023491396
205	0xbd26bee6	-0.0407094
206	0xbc19a7a0	-0.009378344
207	0xbc5656a8	-0.013082184
208	0xbd04d354	-0.0324281
209	0xbd15f098	-0.0366064
210	0xbc8e1c48	-0.01734747
211	0xbd1df0af	-0.038559612
212	0xbcfe485c	-0.031040363
213	0xbcf85da4	-0.030318089
214	0xbb3ea46b	-0.00290897
215	0xbd13c946	-0.03608062
216	0xbc6067a9	-0.0136965895
217	0xbd146bcb	-0.036235612
218	0xbc817957	-0.01580493
219	0xbc94a1b2	-0.018143509
220	0xbccad085	-0.024757633
221	0xbcddc69f	-0.027072249
222	0xbc7ed524	-0.015553746
223	0xbd10800b	-0.03527836
224	0xbd3b8461	-0.045780543
225	0xbc8e5e6d	-0.01737901
226	0xbc031622	-0.008000882
227	0xbc4cf99a	-0.0125106815
228	0xbcf7a4f9	-0.030230032
229	0xbcb062f5	-0.021531561
230	0xbcee9885	-0.029125461
231	0xbcdde4a8	-0.02708657
232	0xbd7a79eb	-0.061151426
233	0xbcadb3e1	-0.021203937
234	0xbcac9000	-0.021064758
235	0xbd08cd84	-0.03339912
236	0x3c779db6	0.015113285
237	0xbd3e66f0	-0.046484888
238	0xbbf1eb51	-0.007382788
239	0x3d0c61bf	0.034272905
240	0x3c7b32e7	0.01533196
241	0xbd07ff6c	-0.033202574
242	0xbc34075b	-0.010988082
243	0xbc439ae7	-0.011938787
244	0x3d8b9bf5	0.06816856
245	0x3a9c73c9	0.0011936362
246	0xbd27fef0	-0.04101461
247	0xbcfeb8ad	-0.03109392
248	0xbd1cf70c	-0.03832154
249	0x3cee53e1	0.029092731
250	0x3c7fe3c5	0.015618269
251	0x3d0518f4	0.0324945
252	0x3d1f256e	0.038854055
253	0x3ca68c5e	0.020330604
254	0x3d44b35f	0.048022624
255	0x3c335d96	0.010947606

out.bias f4 [42]
0	0x3bc1cb5f	0.0059141363
1	0x3d48bdf1	0.049009267
2	0x3c41c9d3	0.011827904
3	0xbd289676	-0.041159116
4	0x3b9850f8	0.004648324
5	0x3d5f8e27	0.054578926
6	0xbc9612e2	-0.01831955
7	0xbd2144bf	-0.039372202
8	0x3c9d585d	0.019207174
9	0xbd22137a	-0.039569356
10	0x3cf05ba8	0.02934058
11	0x3c552663	0.01300964
12	0x3ce153d4	0.027505793
13	0x3d355cfa	0.044278122
14	0xbbb2169a	-0.005434823
15	0x3c305d32	0.010764407
16	0xbd221d3b	-0.039578658
17	0x3c8f708b	0.01750972
18	0xbd26b59b	-0.040700536
19	0xbbf9ee62	-0.0076272944
20	0xbd12f5ec	-0.03587906
21	0x3bcaac36	0.00618508
22	0xbc10c126	-0.008835113
23	0xbc181450	-0.009282187
24	0xbd52a4ad	-0.05142658
25	0xbd06bb79	-0.03289363
26	0x3cdc1047	0.02686323
27	0xb6d8d2ae	-6.461828e-06
28	0xbc974025	-0.018463204
29	0xbcb1fa2f	-0.021725742
30	0x3d5e6168	0.054292113
31	0x3d19e0cc	0.0375679
32	0x3bef504d	0.007303274
33	0xbb2c8297	-0.0026322955
34	0x3c762fc6	0.0150260385
35	0xbb9782da	-0.004623753
36	0x3c8014f5	0.015634993
37	0x3cac7040	0.021049619
38	0x3c722961	0.014780373
39	0x3b4d4ea4	0.003132739
40	0x3d43cd02	0.047802933
41	0xbcdd4bf9	-0.027013766
